final-project-group-02-main/model_neuralnet.pth (torch, 302699 bytes, 12 tensors)

weight f4 [128, 9]
00000000: 67b6 1d3f 81a8 a03f 2090 9c3d 97d2 0c3f
00000010: 3ca8 adbc ca57 2fbe 80b8 a6bd 77a4 9f3e
00000020: 6d91 6f3e 57c4 49be 30ae 3e3f 1269 cabd
00000030: 48ca a5bd a51e 413f 8563 973e ca36 d73d
00000040: 49e0 1a3f 1013 cdbd ac96 03be 47f7 413e
00000050: c65b 36bf 47c7 e93e 162f 18bf 0ee0 7a3e
00000060: 40f2 bf3d 16ed 91be 46d6 8dbd c902 0abe
00000070: 64b1 393e 9c40 34bf cd6c e83e 9330 18bf
00000080: e705 7f3e 761b be3d fb58 89be 9097 9ebd
00000090: 0caf f03e 0bfe 733f 2d7e c4bc 3fff 6a3e
000000a0: c677 2f3d 2884 7a3e dce3 223e f322 f03e
000000b0: 1c6a ad3e de69 933a 9b74 733c 43b2 5ebc
000000c0: 862d 003f 8d6a 5ebe a1c5 21bf 9b49 25bf
000000d0: bd2b d63d d6a0 31be 8dc3 af3e d1bc e4bd
000000e0: da2b 093f f9fb 2fbe fd65 af3e 7bdd 1cbf
000000f0: 54df 9dbe 4372 463e dd64 2fbc 871d 66bc
00000100: 8cda ad3e 6c1f 1bbe 4576 b93e 5f41 88bd
00000110: 0ed7 d5be 08bb cebe 9032 493f efe5 8cbb
00000120: 005e 26be 830b 93bd dc7f 9cbe 2625 8dbe
00000130: 40bf 6b3d ace1 a33e 3251 953e f652 5e3f
00000140: 1c76 973e 0e80 c0be de1c 913e c378 19bf
00000150: 0a8a c13e 280f d3bd 2586 083e c371 273e
00000160: 4429 b4bd 6c4c 84be 037a a13e 0775 d93d
00000170: 6368 d43e 2b49 c33e e0f2 3ebe 058b c2be
00000180: 3ee3 97be a3f7 98bf a758 97be fb07 dbbe
00000190: c0e4 5abf 5c51 01be dfee 1fbe 2665 02be
000001a0: fa02 1ebe 5a87 dabc 9fd2 e9be 9d56 a8be
000001b0: 7f86 06be 5e06 71be fafe 823d 5dee 9a3e
000001c0: f887 ffbd 5488 1abf 27f9 20bf 7d88 973e
000001d0: f493 e7bd f233 e0be 5b2a 63bf f36e 00be
000001e0: 313f 3abe f4dc efbd f40d 13be 33a7 50bc
000001f0: f730 e3be 5262 a0be 8052 0cbf 7730 d13e
00000200: 2d24 b13d 023d 61be d552 893f 2efd 073e
00000210: fbb5 8e3c cf39 0cbd 27a0 06bf 67d2 cbbe
00000220: 8563 24bf a577 58be 37b6 4dbd b93b 0dbe
00000230: de1d a0be 56c4 80be 81ec c43e 323e 4fbe
00000240: 17e6 07bf 9aba 033f 83d7 ea3d 6598 47be
00000250: fc4f 913f f4d0 153e 2662 8d3c 7554 a4bd
00000260: e8b0 0cbf 97a6 f8bd 9107 7a3e fb87 dcbe
00000270: 83b0 6bbd 7c25 903d f835 d43d e663 083e
00000280: d6d5 a93f 5c05 963e f090 103e 2cc0 0fbe
00000290: d523 9c3d 8657 f3be ae55 f33c 1020 283f
000002a0: 0167 2a3f ad09 e5be 425d 7e3e 8099 e0bd
000002b0: 9362 7d3e 9268 ccbe 8b86 d63c a4ea 4a3d
000002c0: e993 97bc bdbd 883c 999e a33f 1b0b 823e
000002d0: 0c4e 07bf ccba 073f 769a 0b3e 2226 6fbe
000002e0: ca29 983f 056e 6b3e 8520 353d 7d51 f3bd
000002f0: 9511 0bbf b980 9fbe c73a 5d3d 9d8b 01bf
00000300: 83f8 a13e c462 323d 10d1 be3e f6be 44be
00000310: dc73 06be 1a21 31be d6c9 c0be 7874 963e
00000320: db9e 19bf 14e3 c13e 994a f3bd 0b6e bd3d
00000330: 212e 4d3e 4f4b dfbd f9e1 90be fd8f 04be
00000340: 55b4 69be aa24 e73c 8721 863e 1d45 21be
00000350: ffe6 0bbf 3ada 15bf 2723 a63e 960e 0fbe
00000360: 3738 4cbe fa4a 4dbd 24e8 5abc dc98 1d3e
00000370: 2dbf b53d 3a07 4c3f e551 25bf 6f6c ff3d
00000380: 59c8 c63d eb04 c13e 1382 a8be edf1 10be
00000390: fb32 003e b758 5fbf 1926 ebbd 5273 fcbc
000003a0: 9e64 cd3e 2beb 0f3f 6c93 eabd 7879 28be
000003b0: 6bbc 11bd 712d 9e3e 7de4 5ebe c450 0fbf
000003c0: c379 0abf dd8b 9b3e b0f4 47be 01ad 08bf
000003d0: 0cae f53e e3c0 e93d da15 76be 099f 923f
000003e0: 53f4 4e3e 67db 293d 4851 bfbd 8482 07bf
000003f0: 7443 a0be 0c80 9abe e4c1 c6be a336 cdbe
0.6160645 1.2551423 0.07644677 0.55008835 -0.021198384 -0.17123333 -0.08140659 0.31180164
0.2339532 -0.19703804 0.7448454 -0.09883322 -0.08095223 0.75437385 0.29568115 0.10508497
0.6049848 -0.100134015 -0.12850446 0.18941985 -0.71233785 0.4565985 -0.5944685 0.24499533
0.093723774 -0.28501195 -0.06925635 -0.13477625 0.18134075 -0.70411086 0.45395508 -0.5944912
0.24904595 0.092825815 -0.268257 -0.07743752 0.4700855 0.95309514 -0.023985947 0.22948931
0.042838834 0.24464476 0.15907234 0.46901664 0.33870018 0.0011246761 0.014859344 -0.013592306
0.50069463 -0.21720333 -0.6319218 -0.6456544 0.10457561 -0.1734651 0.3432888 -0.11168826
0.5358254 -0.17185964 0.34257498 -0.6127545 -0.30834448 0.19379525 -0.0107052 -0.014045126
0.339558 -0.15148705 0.36223045 -0.066530935 -0.41765636 -0.4037707 0.7859278 -0.004299871
-0.16246796 -0.0717993 -0.305663 -0.27567405 0.057555437 0.3200811 0.2916351 0.8684534
0.29582298 -0.37597698 0.28342336 -0.5994989 0.37800628 -0.10305625 0.13332422 0.1635199
-0.08796933 -0.25839555 0.315384 0.10618024 0.4148589 0.3814176 -0.18647337 -0.37996688
-0.2966556 -1.1950573 -0.29559824 -0.42779526 -0.85505295 -0.12628692 -0.15618466 -0.12733898
-0.15430823 -0.026675869 -0.45668504 -0.3287858 -0.13137244 -0.23537585 0.06396289 0.30259982
-0.12477106 -0.6036427 -0.62880176 0.2959632 -0.11307517 -0.4378963 -0.88736504 -0.12542324
-0.18188168 -0.11712065 -0.14360791 -0.012735176 -0.44373295 -0.31325012 -0.54813385 0.40857288
0.08649478 -0.21995929 1.0728403 0.13280174 0.01742076 -0.034234818 -0.52588123 -0.39808962
-0.64214355 -0.21139391 -0.0502226 -0.13792314 -0.31272787 -0.25149792 0.38461688 -0.2023857
-0.53085464 0.51456606 0.11466887 -0.19491728 1.1352534 0.1463049 0.017258715 -0.080239214
-0.5495744 -0.121411495 0.24416949 -0.43072495 -0.05754138 0.070383996 0.10361856 0.13319358
1.3268383 0.29300964 0.1411779 -0.14038152 0.07624022 -0.47527713 0.029703941 0.65673923
0.6656342 -0.44733945 0.24840263 -0.10966778 0.24744634 -0.3992353 0.026187202 0.049540177
-0.018503146 0.016692037 1.2782775 0.25399098 -0.52853465 0.53019404 0.13633141 -0.2335439
1.1887753 0.22991188 0.044220466 -0.11880777 -0.54323703 -0.31152895 0.054011133 -0.5060366
0.31634912 0.04355122 0.37268877 -0.19213471 -0.13130134 -0.17297783 -0.3765399 0.29385734
-0.6000802 0.3786856 -0.11879463 0.09249505 0.20037128 -0.10903036 -0.28297403 -0.12945552
-0.22822697 0.028215725 0.26197454 -0.15749021 -0.5464935 -0.5853611 0.32448694 -0.13970408
-0.1994332 -0.05012033 -0.013361011 0.15390342 0.088743545 0.79698527 -0.64578086 0.12471854
0.09706182 0.37699065 -0.3291174 -0.14154787 0.12519448 -0.87244743 -0.11481876 -0.030816708
0.40115827 0.5621821 -0.114539 -0.16452587 -0.03558008 0.30894044 -0.21766849 -0.55982614
-0.54092044 0.30380145 -0.19526935 -0.53388983 0.4798435 0.11413743 -0.24031773 1.1454784
0.2021039 0.041469004 -0.09341675 -0.52933526 -0.31301463 -0.30175817 -0.38819802 -0.40080747

bias f4 [128]
00000000: 6911 c43d bbcb 95be 94ea 95be 6c11 9bbe
00000010: cb8a 1dbd 5764 f63c 5195 50be a20a 433e
00000020: 467c afbd 8736 0f3f 7249 d93e c642 d13d
00000030: 12d8 2a3d 6b6c cb3d 3840 75be aa5d 653d
00000040: c9cc 83be ec9b 16be 408d 1ebe 1cb8 b3bd
00000050: aa97 8dbe 2897 333f 04d5 083f 88a4 243e
00000060: 8b38 223f 4948 9d3e cac3 333e 3a5e 88be
00000070: 3002 1abe d01e 98be 03c2 bebc de75 8bbe
00000080: 4c8a d73e cfc2 98be 8cdb 1c3d b39b a33d
00000090: d780 06bc 3c75 87be bdd9 6cbe f766 1cbe
000000a0: eb8f bd3d 35e3 eebd 1754 8bbd 7988 3dbe
000000b0: 88a4 95be 0616 06bd 23ab f13c e365 c83d
000000c0: 75ab 4d3d 533f 943e 0100 43be 8d6d f23e
000000d0: 8736 c63d 755a 9bbe 01b4 c0bd 0516 d83e
000000e0: 0973 4a3e 1d1b 9abe f6c6 b63e 903e 463d
000000f0: 4e88 41be 0ba5 c83e 9961 4d3e 8844 bebc
00000100: b824 b23d bd67 30be 75c1 76be eff6 8ebe
00000110: 80e2 debd 9e99 a43d 6bcf b73d 1c79 0cbe
00000120: 7f52 dd3e 0e21 8dbb 6ea5 133f f0f4 34be
00000130: 6a6e 09be 761c bc3d 62eb e13d 72cc 54be
00000140: 1c2a cf3e 0bf0 88be 5b5e 073e 0365 0f3e
00000150: 503e 68be 6bcf 8ebe 7d15 40be 6994 bf3d
00000160: 80ca cf3d 589a 933d 6b78 8abe 3ca2 fdbd
00000170: 8a8b 85bb 42eb 73bd f305 a7bd 3b07 6ebd
00000180: d4ff d23c 3452 cfbd a133 213e 6014 a4bd
00000190: 21da bf3d 5adf 1f3f 9660 94be 68fd b23e
000001a0: 8790 2d3c 9279 243d 5276 763e 9277 a6bd
000001b0: be12 37be 3e00 743e 1693 8abe fc22 92be
000001c0: a107 933f 92fa c13e 8b4c 48be 6877 c33d
000001d0: c4a1 1f3e e994 86be 69e0 b2bc 0101 41be
000001e0: c4e8 cfbd a36f 1bbe a030 1dbe d12e cf3e
000001f0: c053 cf3d 14e3 5b3f 8190 dc3e cd97 69be
0.09573633 -0.29256997 -0.2928053 -0.3028673 -0.03846244 0.030077143 -0.2036946 0.19047025
-0.08568625 0.5594258 0.42438847 0.10217814 0.041709967 0.099327885 -0.23950279 0.055997528
-0.25742176 -0.14707917 -0.1548357 -0.087753505 -0.27654773 0.7015252 0.53450036 0.16078389
0.6336753 0.30719212 0.17555156 -0.2663439 -0.15039897 -0.29711008 -0.023285871 -0.27238363
0.420977 -0.29836127 0.038295314 0.07988682 -0.008209429 -0.2645663 -0.23129936 -0.15273653
0.09255966 -0.1166443 -0.06803148 -0.18509091 -0.2922709 -0.032735847 0.02950055 0.09785058
0.050212342 0.28954563 -0.1904297 0.47349206 0.09678369 -0.3034245 -0.09409333 0.422043
0.19770445 -0.3009881 0.3569867 0.048399508 -0.18899652 0.39188418 0.20056762 -0.023226038
0.0869841 -0.17227073 -0.24097236 -0.2792277 -0.10883045 0.08037113 0.08975109 -0.13718075
0.43227002 -0.004306919 0.576743 -0.17671561 -0.13421026 0.09185116 0.11031224 -0.20781115
0.40461814 -0.26745638 0.13219588 0.14003377 -0.2268002 -0.27892622 -0.18758197 0.09354479
0.10146046 0.07207173 -0.27044997 -0.123844594 -0.0040754722 -0.05955053 -0.081554316 -0.058112364
0.025756754 -0.10123101 0.15742351 -0.08011699 0.09367777 0.6245018 -0.2897994 0.3495896
0.01059354 0.040155 0.24068573 -0.08128275 -0.17878243 0.23828217 -0.27065343 -0.28542316
1.1486703 0.37886482 -0.19560449 0.09544259 0.15589052 -0.26285484 -0.021835523 -0.18848039
-0.101518184 -0.15179305 -0.1535058 0.40465406 0.10123396 0.8589337 0.43078998 -0.22811814

weight f4 [128, 128]
00000000: dc7b 87bd 64e1 86bd 2bfd ecbd e3b8 eabd
00000010: 89b2 7cbd 3658 643c 88f3 3d3e 01c1 1ebd
00000020: 3581 aebc 3091 1ebe b050 e83c 5d8a 183c
00000030: 3b62 5f3d 91ec 743c f598 3dbd 48e7 723c
00000040: 9f09 55bd 343c 69bd d7d2 96bd 25d7 55bd
00000050: 710b 54bd d086 7ebd 34d1 2bbe f7d0 463d
00000060: a614 623d 00cf 813d 29ae d03c f9d0 46bd
00000070: 6c10 8bbc b81d 60bd 43ce 6f3e 4b87 f6bd
00000080: 3e1a 113d d260 f0bd 9717 94bd 8e2e 85bd
00000090: 717a 003d 2e01 58bd 35a2 2bbd 8d83 1ebd
000000a0: b9d3 e13b f0f8 32bd bfca 553e f4c1 1abe
000000b0: befc 55bd 6c3f 233d cfe8 d43b 5983 67bd
000000c0: b40d 78bd 5a29 f2ba 7b9b 4dbd dfc7 353d
000000d0: 1015 8cbd 429c cebd 8ed1 583e a81d 8a3d
000000e0: 9638 5dbc b04b ecbd 4c18 483e b189 d5bb
000000f0: caa8 13bd e61a 483e 86fa 29bd 7ec2 033d
00000100: 9766 08bd 04b3 a9bd 7e27 26bd 490c 59bd
00000110: 89e8 44bd 8ab0 093c c3e6 803c dee0 98bc
00000120: 02ba 343e b808 e03c c261 59bc 6cc6 c5bc
00000130: eca9 62bd b2fd ff3c 3993 a33d 8525 55bd
00000140: c6d5 913c eb3d 53bd a2b0 63bd 94c9 5a3d
00000150: 12f2 b6bd b2e0 56bd f4a8 0fbe 87eb 8e3c
00000160: 80d1 6c3e afdc 5e3d 2a37 83bd 806f 653e
00000170: 892d f23c 76c9 fabb b3b4 6a3d e550 82bd
00000180: 35c0 75bd 7c87 8ebd b381 503c 42a4 493d
00000190: a524 3e3d 909b 723d ea57 24be df63 623d
000001a0: 01f9 003c cce9 e1bc a4a8 0e3b 9adf 673e
000001b0: a852 513e b39c 6ebd 4b05 84bd adcd 5fbd
000001c0: 17d0 ad3d 09b6 4d3e a5fd 3e3e a5de 8ebd
000001d0: c9df 0cbc 9a08 84bd 742a 94bd e856 443e
000001e0: c24f 97bd 6c70 9bbd cd87 89bd f4b1 7e3d
000001f0: 3626 023d ff6c 223d cb5d 8a3d 6b23 fabd
00000200: 0518 98be 7332 17be b213 c7bd 7ab2 c4bd
00000210: 5cae 4abe 6dbd adbd da36 bebd 710d eebd
00000220: d50a dcbb 7466 6f3d 8eb1 e63b 3cad f63c
00000230: c7e4 3ebd a817 e83c d2f4 49bc aa70 493d
00000240: b3f4 eebc 4d22 04be e063 c63c f4dc 0dbe
00000250: c13c 47bc 652f 983d 3bba 513d 59e7 bbbc
00000260: 2b8b 7f3d 7e9c 513c 2816 e8bc d7c3 4bbc
00000270: d91f 033d 9c0f 93bc 13a0 ffbc 025a a6bd
00000280: 4e30 6c3b adb4 bfbd ed4b 92be 9a94 98be
00000290: 2e59 b83d 5315 f9bc fb4f df39 6c6c a73c
000002a0: f38e 063d c377 1d3d cc34 84bc 6b71 6bbd
000002b0: 7ef7 71bc 9afb da3d 9af1 5bbd ee77 96be
000002c0: 20cb 70be 84c2 633d 3eaa acbd 3e9a 023c
000002d0: 7020 93be ab66 8dbd 507f a1bc 9f65 503c
000002e0: a730 b53c 94cf b3bd 5450 0a3c 1984 bfbd
000002f0: bcfd 07bc ff59 d03b 3eb3 08be dfce d03d
00000300: bdad c2bd 854f d63c a8eb 3f3c 477f 3abd
00000310: 1659 0fbe 85b2 143d 6941 58bb f530 a1bd
00000320: 5adf 353c 64e4 44bc ed0e 183b 8c18 a23c
00000330: ada1 0bbe 9474 943c 1029 c8bb 39ec 40bd
00000340: 14f1 6b3c 59a3 3cbc 5994 82be 5b52 b7bb
00000350: 2798 b9bd 03d9 80bc 0c97 28bd 8a7e 31bd
00000360: aa50 83bc 13a2 193d 23b3 febd bf24 84bd
00000370: adc3 84bd dfb9 9ebd a3be bebd 74e8 49be
00000380: 3410 81be 398d 35be 1889 eebd 3477 bebd
00000390: dbfb 4cbc 43a2 6e3d 712e 94bd 7a63 3a3c
000003a0: 4813 8bbd c33f 9ebd 10e3 1c3d e63b 47bd
000003b0: dfeb 93bc f52c b83d 5902 bfbd 9d88 81bc
000003c0: dedb 833d 9c6f 183c 1c12 01bd 29c7 95be
000003d0: 90ec 25bd c2fd 0dbd 666f 53be d56f 03bd
000003e0: c0d6 b03d ab78 f53c 96cc 1bbe 5330 6b3c
000003f0: aacf 6ebd f33b 6d3c de10 4b3c 3343 58bd
-0.06615421 -0.065859586 -0.115717255 -0.114610456 -0.061693702 0.013937047 0.18549931 -0.03875828
-0.021301845 -0.15485072 0.028358787 0.009310332 0.05453704 0.01494898 -0.04628845 0.01482565
-0.05201113 -0.05694218 -0.07364433 -0.05220713 -0.051768724 -0.062140286 -0.16779023 0.04853913
0.055195473 0.0633831 0.025473671 -0.048539136 -0.016975604 -0.054715842 0.23418526 -0.12037524
0.035425417 -0.11737217 -0.07231062 -0.0650302 0.03136677 -0.0527355 -0.04190274 -0.038699675
0.0068916944 -0.043694437 0.20878123 -0.1511305 -0.052242987 0.039855406 0.0064974795 -0.056521747
-0.060559943 -0.0018475458 -0.050197106 0.044380065 -0.06839955 -0.100883976 0.21173689 0.06743938
-0.013502261 -0.11537874 0.19540519 -0.0065166582 -0.03604964 0.19541511 -0.041498683 0.032167904
-0.033300962 -0.08286098 -0.040565006 -0.05299023 -0.048073325 0.008403907 0.015735036 -0.018661913
0.17649081 0.027347907 -0.013267936 -0.024142466 -0.05533783 0.031248901 0.07987065 -0.052037735
0.01780213 -0.05157272 -0.055588372 0.053414896 -0.0893289 -0.05246038 -0.14029294 0.017446293
0.23126793 0.05440968 -0.06407006 0.22405815 0.029562728 -0.0076534105 0.057301234 -0.06363086
-0.059997756 -0.06959435 0.012726235 0.049228914 0.046421666 0.059230387 -0.16049162 0.055271026
0.007871867 -0.027577303 0.0021767998 0.22643891 0.20441687 -0.05825491 -0.06446322 -0.054639507
0.084869556 0.20088972 0.18651445 -0.0697606 -0.008598276 -0.06446953 -0.0723466 0.19173777
-0.073882595 -0.07589802 -0.06715355 0.062181428 0.031774722 0.039654728 0.06756171 -0.12213787
-0.29705825 -0.14765339 -0.097205535 -0.09604354 -0.19793075 -0.08483396 -0.09287806 -0.116236575
-0.0067151585 0.058447316 0.007040209 0.030111901 -0.046604898 0.028331593 -0.012326436 0.04917971
-0.029169416 -0.1290371 0.024217546 -0.13853818 -0.012160481 0.07430915 0.051202994 -0.022937464
0.06238858 0.012793658 -0.028330877 -0.012436829 0.032012794 -0.017951779 -0.031204259 -0.081226364
0.0036039534 -0.09360633 -0.28573552 -0.29800874 0.09001385 -0.030405676 0.00042593465 0.020437442
0.03285117 0.03844429 -0.016138457 -0.05748121 -0.014768479 0.106925204 -0.053697206 -0.29388374
-0.23514986 0.055605426 -0.084309086 0.0079713445 -0.28735685 -0.06904348 -0.019714028 0.012719541
0.022117926 -0.08779827 0.008442003 -0.093513675 -0.008300241 0.0063583846 -0.13349625 0.101957075
-0.09505794 0.026160965 0.0117139 -0.045531537 -0.13998827 0.036303062 -0.0032997972 -0.07870666
0.011100614 -0.012017343 0.0023202256 0.019787095 -0.13635893 0.018121995 -0.0061084107 -0.04710028
0.014400739 -0.0115135545 -0.25503805 -0.0055945343 -0.09062224 -0.01572848 -0.041159675 -0.043333568
-0.016029675 0.03750808 -0.12436511 -0.06452321 -0.06482635 -0.07750296 -0.09313705 -0.1971758
-0.25207675 -0.17729653 -0.11647242 -0.0930008 -0.012511219 0.058260214 -0.072354205 0.011376256
-0.06790787 -0.07727005 0.03830248 -0.048641108 -0.018056808 0.0899295 -0.0932662 -0.015812213
0.06438421 0.0093039535 -0.03151141 -0.2925351 -0.040508807 -0.03466583 -0.20647964 -0.032089073
0.0863471 0.029964766 -0.15214762 0.014354783 -0.058303513 0.014479625 0.012394158 -0.05279846

bias f4 [128]
00000000: 800c 1e3d fc65 b03e 69bf cd3e c015 1abd
00000010: 3f5e ba3d e63b 033c 1d16 ffbd 2fb6 ee3e
00000020: 4ed1 c13e 52b9 fabc 5c3f 81bd cde4 b4bd
00000030: 385a 6c3e 970a 403e 9373 633d 4ac1 8d3e
00000040: 0862 d73e f2d6 373e dea0 ec3d 9e74 a13e
00000050: 20e1 063e 5c84 58be 9e38 0bbe 1652 0b3d
00000060: 1554 503e 712d b13e e47c d4b9 f6e7 bebe
00000070: 3f75 303e 110f b9be 5275 6d3e 3775 a8bd
00000080: 7215 e53e add4 8fbb f999 663e 46f8 cc3e
00000090: bdfb 8e3e c168 d23e 9358 813e 270f 1fbe
000000a0: 2d5a bcbd 7b49 e23e 0e0d bb3e 9b7a eebd
000000b0: 3bea d7bd dde3 f93e d6e4 4c3e d071 a73d
000000c0: 6887 613e 7c30 e33e 5c0f ec3e d1dd 1bbd
000000d0: a714 aabd 71d8 58bd aa29 d0bd 8762 ed3e
000000e0: 7692 fbbd fe5e 8bbd 7f1f b3bd 2739 833e
000000f0: 3585 883e dd8d 99bd af3c 6d3e 7aca 0d3f
00000100: 6fc7 6bbd 8f3f dc3e 94a4 1e3c 1379 4f3b
00000110: 99de 99bd 0e30 0b3f c02c 053f 44df 523e
00000120: 2f2e 28bd c74a 9a3d 18fa ccbe fed4 b2be
00000130: 093a e33e 7a5e 943e 2682 ff3e a8e3 35bd
00000140: 092d dc3e 82d2 acbe 76ac 613e bb49 323e
00000150: cdb3 be3e 0342 adbd ce7c 493e f059 663e
00000160: e4fe 4ebd b6b3 bbbd d87b 793e 6b2a dbbe
00000170: 9893 993e 4357 d83e 2d74 993d a8a9 cebe
00000180: e6bc 83bd 74f4 973e 243b 3a3e bad6 a3bd
00000190: e8ef ba3e 3f18 7e3e c0de 57bd a233 ce3e
000001a0: 0997 c83e 2631 25bd 87dc 563e b38c 0a3e
000001b0: e1d0 2e3e 6ac2 453e 4bca af3e 9ab2 583e
000001c0: bcba 4c3e 1531 7dbd 17fa 8739 4524 de3d
000001d0: 5a75 023f 6b57 9ebd 3fc2 03bd 8cf0 e73d
000001e0: cd77 1f3e c8fe 9cbd ce1c 443d 61f4 fb3e
000001f0: e91b 363e afb7 3a3d 2793 8cbd 7a95 fe3d
0.03858614 0.34452808 0.40185097 -0.0376184 0.09100007 0.008009886 -0.1245539 0.4662337
0.37855 -0.030605946 -0.06310913 -0.08832703 0.2308129 0.1875404 0.055530142 0.2768653
0.4206698 0.17953089 0.115541205 0.31534284 0.13171816 -0.21144241 -0.13595816 0.03401383
0.20344575 0.34604982 -0.00040528842 -0.37286347 0.17232226 -0.36144307 0.23189285 -0.08225482
0.44742924 -0.0043893666 0.22519673 0.40033168 0.27926436 0.41095546 0.2526289 -0.15533124
-0.09196887 0.44196686 0.36533397 -0.11644479 -0.10542723 0.48806658 0.20009169 0.08176005
0.2202431 0.44372928 0.46105468 -0.038053337 -0.0830472 -0.05294079 -0.10164197 0.46364233
-0.122837946 -0.06805228 -0.08746242 0.2562954 0.2666413 -0.074977614 0.2316768 0.5538708
-0.05756324 0.4301724 0.009682793 0.003165786 -0.0751316 0.543702 0.5202141 0.20592982
-0.04105967 0.07533794 -0.40034556 -0.34928125 0.44380215 0.2897833 0.49903983 -0.044406563
0.4300311 -0.33754355 0.22038445 0.17410938 0.37246552 -0.08459856 0.19676515 0.22495246
-0.05053605 -0.091651365 0.24363649 -0.428058 0.29995418 0.42254075 0.07492862 -0.40363812
-0.06432514 0.2967869 0.18186623 -0.0799994 0.3651116 0.24813937 -0.052702665 0.40273768
0.3917773 -0.040330075 0.20982562 0.13530235 0.17071868 0.19312444 0.34334025 0.21161881
0.19993109 -0.061814386 0.00025935538 0.108467616 0.50960314 -0.077315174 -0.03216767 0.113251776
0.15573044 -0.07665783 0.047879033 0.49209884 0.17784084 0.04558533 -0.068640046 0.12430854

weight f4 [128, 128]
00000000: ae60 c53b 6eb3 08bd e4d3 56bd 4c81 b4bb
00000010: efbd 5fbc ba75 1e3e 598c 2bbe 819e 04b9
00000020: 7698 353d 9d9a 353b 9c70 58bd 136f e2bd
00000030: b85b 533d e278 b23c a739 03be 6377 04bd
00000040: 793d 853d 0239 823d 6b0f c43c 8dd3 7c3d
00000050: 108f 783c b2dc dbbc 41f7 d1bc 0c39 e53b
00000060: 0191 1e3c 2312 143c 4caa 9c3d c476 05be
00000070: 35f1 173b 7011 0bbe b8bf 633d 2a6a f8bc
00000080: c200 983c 43b1 9d3c 49b9 5c3d 1de8 a63b
00000090: 6e0e 92be 080b 51be 78d9 5c3d 1bc9 423d
000000a0: bbc2 d43e 0524 a83d d6a6 6f3d 8566 e3bd
000000b0: 2bbd 28bd 654f f13c 5429 31ba 878b 88bc
000000c0: e1a8 413b 7fac 2c3d 8b1b 473d a7f9 fe3e
000000d0: dafc 0d3d 6716 86bd f21d 8fbd 8705 a23d
000000e0: f387 09bd 75d8 a3bb 2755 23bd 7aa4 eb3c
000000f0: 3c56 86bd 4649 9e3c 70c0 313d ba65 3d3d
00000100: bfa7 65be 0b37 073c ec80 62be d03c 1b3e
00000110: 0e22 d03c a535 ce3c f432 dd3c 9665 c2bb
00000120: 1f4f fd3e 290f 9bbe 8e15 63bd dfbc 5fbd
00000130: 7402 84bd 9307 db3b f2f0 b83b 7403 013f
00000140: 678d 98bd 2a4f 4fbd 48d3 0d3d f2d2 41bc
00000150: 65bd 51bd a531 fb3c 58c3 adbb 7363 e43c
00000160: 6d97 ef3e 9308 d1bb 36ec aebb a5a5 8ebd
00000170: 6ad8 1e3c dab9 b13d 63a1 c43c 754c 7dbd
00000180: 572c 17bb 4c05 b5ba 998c 1ebd 312f 933c
00000190: af99 8e3c c4f3 ee3b f507 c8bd 4e24 83be
000001a0: d529 093d 4b74 023f 8564 aebb 4924 fa3c
000001b0: 2c67 273c 2e59 4e3d 6963 473d b931 5b3d
000001c0: 7362 453c 608f 26bd 718d 89bd fdf1 83bc
000001d0: 6c9f 893d 43a3 efbd c301 fc3e 6893 503c
000001e0: 31d9 00bb ab5a a83c c958 5dbb 271b 323d
000001f0: 27ee c13d 9c1e dbbd e920 72bd 6dee a2bc
00000200: e08f 5d3d d233 babc 9d7c 033e 8242 8d3d
00000210: 3024 8a3d a9e2 c8bd 08b4 3abe dc1a 333d
00000220: 68f5 8fbc 1626 11be 30f9 8abc f5ea cbbd
00000230: 601e 21be c21d b7bd b0cb 1fbd 9339 963d
00000240: d10a 243e 4ef7 bcbd 96fe 3bbe c00e cf3d
00000250: c6c3 04be 0efa 06bd 6c13 3dbe 85f7 1bbd
00000260: 5e6f de3d eaf7 a8bd 3664 043d 5e13 7cbd
00000270: c24d b2bd 7da7 59bd e16e 73bd 3767 98ba
00000280: e1bf 70bd 7b48 1fbe f7d5 11be 641b 83bd
00000290: 3294 5e3e ce9a 753e e14e 1ebe 3bcd e5bc
000002a0: 17b8 c0bd 93b1 203e 97c7 c53b f679 e3bd
000002b0: 0cea 58bd e7b1 66bd 677d c73d 4a5e 903d
000002c0: 25bd ea3c 53bd 1cbc 7e49 e2b9 0c7d 05be
000002d0: ac8c 203d 3627 82bc b9a4 27be 432d 303e
000002e0: 3568 07be 0bd3 13be bb11 423c 0a14 4cbd
000002f0: 3b42 1cbd 772c ea3c d4ea 48be f3b6 543d
00000300: 29b3 f2bd 5ed4 cbbb 5996 d8bd 17e3 a0bd
00000310: d6c6 313d 2e49 a53c c5d4 723d babe 6b3c
00000320: 8e0f 06be 54be ab3d bcd9 b7bd d3c6 89bd
00000330: 878b 203e e62f b2bd b7bb 9d3b 9e39 e5bd
00000340: 5331 153e b996 98bd 39be 32be 1a2b c7bd
00000350: c9d1 d83d 4ebc 3b3d 1cbc fb3d 1985 24be
00000360: c458 eabd f49f 0dbe e60e 8f3d 30c6 21be
00000370: 7a7f b3bd 294c 203e 39cd 3cbe 2860 d8bd
00000380: a121 13be 8a97 393d 29ca 91bd 07ba 393d
00000390: 4ed8 4f3d 6a9d 49be 2a83 c8bd 776e 583e
000003a0: e319 debd e406 f6bd 6ac3 a63d 0e93 2cbe
000003b0: 23a5 55be 9a8f 27be dab6 f83d 7a88 373d
000003c0: 2790 403c 6b7b 223c e1ec 0abc 79f5 47be
000003d0: 069a f73d 0ad9 4abe 3ab0 07be dead dabd
000003e0: cc38 d43d edae f6bb 1441 ebbd 5094 2e3e
000003f0: e8fa d0bd 3597 be3d eda6 31bc 5269 8a3d
0.006023488 -0.033374242 -0.05244817 -0.0055085775 -0.013656124 0.15474597 -0.16752757 -0.00012647548
0.04433485 0.0027710565 -0.052841768 -0.11056342 0.05160114 0.021786157 -0.12814961 -0.03234042
0.065058656 0.063585296 0.023933133 0.061725188 0.0151708275 -0.026838634 -0.025630595 0.006995326
0.009678126 0.009037527 0.07649669 -0.13033587 0.0023184542 -0.1358087 0.05560276 -0.03032406
0.018555049 0.019249564 0.05388764 0.005093588 -0.28526634 -0.20414364 0.05391833 0.04755507
0.41554818 0.08209995 0.058508717 -0.111035384 -0.04119603 0.029456804 -0.00067581725 -0.016668094
0.0029550123 0.042156693 0.04861025 0.49799845 0.034664966 -0.06547242 -0.069881335 0.079112105
-0.033576917 -0.005000169 -0.03987613 0.028764952 -0.06559417 0.019322049 0.043396413 0.046239592
-0.22427271 0.008252869 -0.22119492 0.15159917 0.025406864 0.025172064 0.027001835 -0.00593252
0.49474427 -0.30285004 -0.055440478 -0.05462348 -0.064457804 0.0066842525 0.0056439573 0.50395894
-0.07448845 -0.050612606 0.03462532 -0.011830078 -0.05120601 0.03066332 -0.005302828 0.027879452
0.46795216 -0.006379196 -0.005338217 -0.06965188 0.009695152 0.086780265 0.024002736 -0.061840493
-0.00230672 -0.0013810783 -0.038708303 0.017966839 0.017407266 0.0072922427 -0.09767143 -0.25613636
0.03348716 0.509587 -0.0053220415 0.03053488 0.010217469 0.050378017 0.04867879 0.053514216
0.012047398 -0.040664077 -0.06716431 -0.0161066 0.067198604 -0.117010616 0.49220094 0.012730457
-0.0019660706 0.020551046 -0.0033774844 0.043482926 0.09469252 -0.10699198 -0.059113417 -0.01988908
0.054092288 -0.022729788 0.12840505 0.06897451 0.067451835 -0.09808857 -0.18232739 0.043726787
-0.017573074 -0.14174685 -0.016964525 -0.09956924 -0.15734243 -0.08941223 -0.03901261 0.073352
0.16019751 -0.09226857 -0.18358836 0.10110235 -0.12965307 -0.032953314 -0.1846444 -0.03807785
0.10861085 -0.08250411 0.03232213 -0.061541907 -0.087062374 -0.053138245 -0.059431914 -0.001162744
-0.05877674 -0.15554993 -0.14241777 -0.06401709 0.2173622 0.23984835 -0.15459777 -0.028051963
-0.09410112 0.15692739 0.006035756 -0.111072466 -0.05295758 -0.056322005 0.097407155 0.07049234
0.028654644 -0.009566623 -0.00043160835 -0.13035983 0.039196655 -0.015887838 -0.1637143 0.17204766
-0.13223346 -0.14435975 0.011845048 -0.0498238 -0.0381491 0.028585656 -0.1962083 0.051932286
-0.11850578 -0.0062203845 -0.105755515 -0.07855814 0.043402515 0.020176496 0.059284944 0.0143887345
-0.13091871 0.083859116 -0.089770764 -0.06727376 0.15678225 -0.08700542 0.004813637 -0.1119263
0.14569597 -0.07450623 -0.17455377 -0.09725018 0.10586888 0.04583388 0.122917384 -0.16066398
-0.11442712 -0.13830549 0.069852635 -0.15798259 -0.087645486 0.15654053 -0.18437661 -0.10565215
-0.14368297 0.045310535 -0.07118637 0.045343425 0.050743394 -0.19688955 -0.097906426 0.21135889
-0.10844781 -0.12013033 0.08142741 -0.16852972 -0.20863776 -0.16363373 0.12144251 0.04480789
0.011753119 0.00991712 -0.008479328 -0.19527234 0.120899245 -0.19809356 -0.13250819 -0.10677694
0.10362396 -0.007528177 -0.11487022 0.17048764 -0.102041066 0.09306184 -0.010843021 0.067583695

bias f4 [128]
00000000: d4cf 9f3c f666 333e 28bb 12be 316f b6bc
00000010: 3b0c 6f3d 4dd4 47bd 0e29 5d3e 9cd6 463e
00000020: 3819 713d 3072 213d db56 573e 5540 c8bd
00000030: a877 38bd c9dc 463c f204 493d 446e f13d
00000040: cf03 c13d 7114 bd3d 2247 ae3e 4611 01bc
00000050: 30b2 b33d a19e 563e 37d1 263e 5a93 4dbd
00000060: 0dd1 2cbe 03e4 eb3d d70e 223d 5d09 de3d
00000070: 578d adbc fa3a b5bd 7189 d83c 18aa 683e
00000080: 64af 0d3e 5022 1b3a edf4 2e3d 6556 da3b
00000090: 7c59 f83d bcb3 ac3a 9607 1e3d decd 1dbe
000000a0: 0e47 fb3a ed26 e5bd 5910 973d e04b 613d
000000b0: 8bff 043e 5271 413e f9a5 5b3e e1e4 c93d
000000c0: 74b3 943a fa60 e83d 204b e83d 317d a93d
000000d0: 4f7a 933e 2a23 a63e efac 963d e5c8 223e
000000e0: 7322 61bd e46a d0bc c839 803d 6837 59bc
000000f0: cd0d 01be 296b 8abd 90ba a13d af8f 6a3b
00000100: 873a 47ba 6c94 d93a 298a 843d 7c6d de3d
00000110: 7a30 84bd 122d 603e 6ef9 2a3d 0c84 133e
00000120: 9337 183d 7d3f 933e eb24 683d 7ff4 363e
00000130: 8577 a8bd 6248 44bd 9ba9 993b 147a 6e3e
00000140: 193b 9a3e c627 453c 2a16 033e f0f2 c03d
00000150: 760c febd 0621 133e 5e4c 8b3c 60d8 cd3d
00000160: c907 0bbc ba1e 533e ef77 633d ca55 b33b
00000170: 1ce9 9c3e 4c9d 2abe 2053 173d c541 a4bd
00000180: fb4b 383e 3394 3f3d dc4c 053e 0d66 223b
00000190: 4ae2 8dbd 981c 8c3e 89b5 34bc 083b 62bc
000001a0: 2140 653d 9488 a8bd 2dfa f93d 541b 35bd
000001b0: 80fc 13be 52ae 7f3e f4e0 e9bb 9c78 1bbe
000001c0: fc5a 2c3e fdc2 d43d 1738 3e3e eafd 523d
000001d0: 0fd9 5d3e 5253 56bd 0bc2 8b3e 6a75 073d
000001e0: 57d8 ba3c 870f d53c 67b5 623e a884 5c3e
000001f0: d048 ca3b f006 35bd 37d8 2e3d 6745 073e
0.01950828 0.17519745 -0.14329207 -0.022269817 0.058361273 -0.04878645 0.21597692 0.19417804
0.05886194 0.03941554 0.21029226 -0.09777895 -0.045035988 0.0121376 0.04907698 0.117886096
0.094245546 0.092324145 0.34038645 -0.007877653 0.08774221 0.2095895 0.16290747 -0.050189354
-0.16876622 0.11518099 0.039564934 0.1084163 -0.02118556 -0.088491395 0.026432725 0.22721136
0.13836437 0.0005917894 0.04271405 0.006663131 0.12126443 0.0013176124 0.038581453 -0.15410563
0.0019170956 -0.11189065 0.07376165 0.055004 0.12988107 0.18890885 0.21450032 0.09858108
0.0011344985 0.11346622 0.11342454 0.082758315 0.28804252 0.32448703 0.07357203 0.15896948
-0.054964494 -0.025441594 0.06261021 -0.013257839 -0.12602921 -0.067587204 0.07896912 0.0035791209
-0.0007599969 0.0016600019 0.064716645 0.10860726 -0.06454559 0.21892193 0.04174178 0.1440584
0.037162375 0.28759375 0.056675833 0.17866705 -0.082259215 -0.047920592 0.004689408 0.23288757
0.30123213 0.0120334085 0.12801424 0.09421337 -0.124047205 0.14368066 0.017004188 0.10051036
-0.008485743 0.2061719 0.0555343 0.0054728733 0.30646598 -0.16661566 0.03694451 -0.08020357
0.17997734 0.046772193 0.13017601 0.0024780065 -0.06927927 0.27365565 -0.0110296095 -0.013808019
0.05596936 -0.08229175 0.1220592 -0.044215515 -0.1445179 0.24968842 -0.007137412 -0.15182728
0.16831583 0.103887536 0.18576084 0.051511683 0.21664833 -0.052325554 0.2729648 0.03307096
0.022808237 0.02600838 0.22139512 0.2153498 0.0061732307 -0.04419607 0.042686667 0.13210069

weight f4 [128, 128]
00000000: a555 44be 34bb 043e 1498 abbc 965d 85bc
00000010: 1ff4 1b3e c7a1 983c 163b e5bd 1564 303d
00000020: 6277 81be 52c6 a3bd 5b64 91bd 8daa fc3c
00000030: afa9 82bc a697 95ba 31fd 3dbe e659 d03d
00000040: 525a 81bc 0b94 333d 7e20 a3bd fca0 edbb
00000050: aa0c 0c3d 6fa1 c7bc 94f0 063e a031 86bd
00000060: 2cc4 bb3b 3187 153d a648 b53d 9ad6 4f3d
00000070: bd81 97bc a5ae 74bd 4ad9 3fbd 5fa9 1ebe
00000080: aea9 013e ff8f 78bd e787 763d eaa6 57bd
00000090: a1b3 efbc 40e7 a53d 267d c6bd 537c 21bd
000000a0: 4336 72bc 6364 0b3d 4e1d 5bbd 5130 8ebd
000000b0: 8fde 0fbd 82b9 33be f548 e2bc 62e9 2bbd
000000c0: 2d63 043e c5d7 c5bd 2845 193c 7b8f 233c
000000d0: 966b a8bd 1191 acbd 8203 92bd 35c7 063d
000000e0: 9d33 ab3d 3010 6f3d b92e 71bd a592 8dbc
000000f0: a3a1 42be 5a1a 4abd 1d10 d2bd 1ccb 4bbd
00000100: 5552 caba 125a a33d 37b4 843d 7acf f83b
00000110: 1161 24bd 970d 29bd 792f bbbd 4808 723c
00000120: dc10 b3bd b983 a8bd 1a85 16bd baac 39bd
00000130: 16c5 1c3e 15be 7cbc cbf0 b63d 1a23 c3bc
00000140: 9d2c d9bd 3357 23be abbc 083d 7a41 0b3c
00000150: e16f de3c 617a 0dbe dc24 eebb 81bb 81bd
00000160: 512e 9a3d 9d64 80bd bd3d cd3c 87f5 2e3c
00000170: 69cb 55be 2a52 343e 102e cfbd 470e d23d
00000180: 3e84 c43c 45af 32bc ae3d ddbd 6b35 37be
00000190: ecb4 20bd ceaf c93b 110a 16be 99d3 8dbc
000001a0: 25ac 423c 073f 703d eb7a b7bc f58c 78bc
000001b0: 3258 4d3e f8b6 e6bb de73 29bb ac74 0dbd
000001c0: 8590 13be 2bcc 813c b1d1 64bc 0391 683e
000001d0: ab68 2cbe bc19 15bd 5fd8 babd 42ad dabd
000001e0: fbbf 62bd d54e 9cbd b63f 50bd f8b8 f6bd
000001f0: 00d3 6ebb 7a9c 85bc 9166 14be cd92 063d
00000200: b4c0 36bc 2b76 fb3c 0d1e 28bd 3ccf e63d
00000210: db0c 5cbd 23a1 06bd 260b 9d3c 3e20 59be
00000220: fd7c 193d 4041 19bd 8aa9 623d f250 12bd
00000230: b5b1 e23d 64f6 a4ba cefb 3f3d bbcb e6bc
00000240: 1398 09be 0fd3 ae3c 10e6 cb3d 00ae 433d
00000250: 5908 22bd 71f7 dc3d def7 4f3d a2d6 9fbd
00000260: c690 cbbd 0b8d 17bc 9eb1 c2bd 4a96 3c3e
00000270: d9cb 093d 83d2 15bd 33bc aebd 7385 6f3d
00000280: 239f 87bc e4fc 01be c6c9 4b3d e146 423d
00000290: 6d34 443d d95e 34bd 0ca5 d5bd ac77 26be
000002a0: f4b4 87be 49e8 febc 0449 05be 051a 0abe
000002b0: 96a5 1e3e a1f9 203e 8ec6 cd3d 8054 18be
000002c0: 26e1 a93c fea5 08bd b91e 07be e2a7 2b3d
000002d0: 3c2d 503d 0ba2 343e 9fdb 22be 4cf4 99bd
000002e0: 92c3 3dbd 3a5c ae3c ec24 da3d f841 973b
000002f0: 05f0 b7bc c0bc 93bd cdbd 5ebd 31c3 383d
00000300: d155 c13d 9861 28bd 4a70 89bc d98a 75bc
00000310: 22f3 913c 5322 c63d 0703 0e3e 9783 26bc
00000320: 54b8 40bd 4584 173d f14d 29bb cd67 30be
00000330: 3abc cebd ca60 9bbd 1718 983d 3b33 1a3e
00000340: 16c6 8f3d 7900 b0bd d86c f7bd 35e7 dabd
00000350: 47e3 40be bb2a 603e 1a26 16bd 504c 053e
00000360: 6034 62bd 8815 903c 2ed9 3bbe 8cba b9bd
00000370: f7b0 d23d 8ef3 1fbe 4833 81bc 3b2e 1fbe
00000380: 8088 41be 2dd8 aabc fe86 223e 8c9b c2bc
00000390: 3ca6 4b3d 5d99 ef3d 2143 b9bd d4bd d93c
000003a0: 0e38 b93b a4f2 07be 1517 49bd 335a 85bd
000003b0: 38dc 29be 09ae 3ebd ef7f 34be 7d30 64bd
000003c0: af0a 1b3e 4ba9 acbd c84d bf3d 16c5 333d
000003d0: 2c87 6c3d 817c 82bd eecc 603c df2f 563d
000003e0: a99a 05be 427c 21be 10c4 803d e643 d63d
000003f0: c719 17bd f798 2b3d f027 bebc 4b18 a03c
-0.19173296 0.12962037 -0.02094654 -0.016279977 0.15229844 0.018631829 -0.111929104 0.043064196
-0.25286394 -0.07996811 -0.070992194 0.030843044 -0.015950052 -0.0011412993 -0.18553616 0.10173397
-0.015790138 0.043842357 -0.07965182 -0.007251857 0.034191765 -0.02436897 0.13177711 -0.06552434
0.0057301726 0.03650588 0.08851747 0.05074177 -0.018494481 -0.059736867 -0.046838082 -0.15494297
0.12662384 -0.0606842 0.0601882 -0.052649416 -0.029260458 0.08100748 -0.09691839 -0.039425205
-0.014783445 0.034031283 -0.053494744 -0.069428094 -0.035124358 -0.17551234 -0.02762268 -0.041970618
0.12928458 -0.096602954 0.009354867 0.009982939 -0.082236454 -0.08426107 -0.07129575 0.032904822
0.08359454 0.058365047 -0.05888245 -0.01728184 -0.19006972 -0.049341537 -0.102569796 -0.049754247
-0.0015435914 0.07976164 0.06479686 0.0075930925 -0.040131632 -0.041272726 -0.09139914 0.014772482
-0.0874345 -0.08228249 -0.03674803 -0.04533074 0.15309557 -0.015426178 0.08932646 -0.023820449
-0.106042124 -0.15951233 0.033383053 0.008499498 0.027152957 -0.13816215 -0.0072675776 -0.06334592
0.075283654 -0.062691905 0.025053853 0.0106786555 -0.20878376 0.17609468 -0.101162076 0.102566294
0.02398884 -0.010906045 -0.1080278 -0.17891471 -0.03923504 0.0061549908 -0.14652278 -0.017312812
0.011881863 0.058653858 -0.022397479 -0.0151703255 0.20053175 -0.0070408545 -0.0025856416 -0.034535095
-0.14410599 0.015844425 -0.01396601 0.22711568 -0.16836803 -0.036401495 -0.09123301 -0.106775776
-0.055358868 -0.076322235 -0.05084201 -0.12046999 -0.0036441684 -0.016309965 -0.14492251 0.032854844
-0.011154342 0.030695995 -0.041044284 0.112699956 -0.053723197 -0.032868516 0.019170355 -0.21203706
0.037472714 -0.037415743 0.055337466 -0.035721727 0.11069051 -0.0012585637 0.046871 -0.028173318
-0.13436918 0.021340875 0.0995599 0.04777336 -0.039558742 0.10789383 0.050773494 -0.0780461
-0.09939723 -0.009249936 -0.09506534 0.18416706 0.03364167 -0.036577713 -0.0853199 0.058476876
-0.016555374 -0.12694126 0.049752973 0.047430877 0.04790156 -0.044035766 -0.10431871 -0.16256589
-0.26505244 -0.031116622 -0.13016135 -0.13486488 0.15492854 0.15720226 0.10047637 -0.14875984
0.020737242 -0.033361427 -0.13195314 0.041908152 0.05082439 0.1763994 -0.15904091 -0.07517299
-0.04632909 0.021284211 0.106515735 0.0046160184 -0.022453317 -0.072137356 -0.054380227 0.045108024
0.09440196 -0.041108698 -0.016777176 -0.014986717 0.01781613 0.096745156 0.13868342 -0.010163209
-0.04705079 0.036991376 -0.002583381 -0.17227097 -0.10094495 -0.075868204 0.0742647 0.15058605
0.07020204 -0.0859384 -0.12081307 -0.106886305 -0.188367 0.218913 -0.03665743 0.13017392
-0.05522573 0.017588392 -0.18344566 -0.09068784 0.102876596 -0.15620252 -0.015771523 -0.1554498
-0.18899727 -0.020855034 0.15871808 -0.023755811 0.04971908 0.116991736 -0.09046007 0.026579775
0.005652434 -0.13276154 -0.04909428 -0.06511345 -0.16587913 -0.04655269 -0.17626928 -0.055710305
0.15140794 -0.084307276 0.093410075 0.043889128 0.057746097 -0.063714035 0.013720734 0.052291747
-0.1304728 -0.15770057 0.06287396 0.10462169 -0.036889818 0.041893926 -0.023212403 0.019542834

bias f4 [128]
00000000: de85 8dbd d98d 013e 7b3f 82bd 7fbb a83c
00000010: 97b2 f53c 15b3 d43c 18fb ef3c e6fd ee3d
00000020: e23c 063e 9cdf fbbd 460c 873c 9acf 473d
00000030: 1a7c 923a 4cab b3bd 7479 b13d ac6a 3fbb
00000040: 8066 a03d 27c6 30bd 49b0 503d 27de 8a3d
00000050: d725 34be 2c61 a1bc a596 103e 74d8 653c
00000060: c75e 6b3d a25e 523d c463 963d a7d0 9aba
00000070: d45a 933d 1972 07bc 998c 0e3d 5db3 cf3b
00000080: 8ab6 88bd a318 94bc 1609 43bd 999d b63d
00000090: 7b6c 113c 641f 073d 5349 9c3d fd46 de3a
000000a0: 30d3 003d 00b8 1b3d 8ba6 023d 9ff7 fdbc
000000b0: 93ba 19bc dba9 ea3c 66ec 37bd fcac cb3d
000000c0: 5676 933d e191 c63d 15fd f9bd 7ebe d73b
000000d0: b073 5f3b 9c0b 3bbd 7760 9e3c cba1 843d
000000e0: 2352 20bd fd59 d3bc 790e 01bc 7965 d0bc
000000f0: 1eb6 883d 3414 9bbd b5c8 8a3d e95c 083e
00000100: f125 1f3e 87f4 613d e604 92bb 793c 903c
00000110: 7ea0 ea3d cca1 1d3b ea82 613d e431 e23c
00000120: b7d4 073d 3cca 983c 054f 063e be2e 753c
00000130: e233 9d3d 40ab 82bd a456 f13c a865 a03c
00000140: fb32 96bc c9a7 47bd 37dc acbc 5b68 923c
00000150: cb22 25bd 34f0 c8bd f671 39bd 95d7 a2bd
00000160: b58a ac3d 4b0a 30bd 388a bc3b bf0c 63bd
00000170: f10d bb3d 42d2 d23c ad57 0a3a ad42 afbd
00000180: 7e20 343c 3949 153c 9b77 0abe 890e e03d
00000190: dac9 4bbc 505c ea3d f2de 34bc ad9e 513d
000001a0: 676e e9bd 238e aabc 6ee3 95bc 1c9a 0dbc
000001b0: 9ada 51bb 8f12 253d 8828 ac3d fb5d de3c
000001c0: c849 3bbd 6d06 10bd 62e2 89bc c565 863c
000001d0: 35a2 c13d b111 013c 7ff8 6dbd 48bb ae3d
000001e0: f08f d03c 2edb 84bc b9ee d7bb 1c08 093c
000001f0: 54e5 1bbc 95e8 d43c 7c96 d7bd 9973 57bd
-0.06910299 0.12651767 -0.06359764 0.020597218 0.029992385 0.0259643 0.029294536 0.11669521
0.13109162 -0.122985095 0.016485345 0.04878197 0.0011175901 -0.08772907 0.086657435 -0.0029207869
0.0783205 -0.043157723 0.05094937 0.067806534 -0.1759256 -0.019699655 0.14119966 0.014028657
0.057463434 0.05135978 0.073432475 -0.0011811451 0.071950585 -0.008266949 0.034802053 0.0063385204
-0.066754416 -0.018078154 -0.047616087 0.08916778 0.008875961 0.03298892 0.07631173 0.0016958412
0.031451404 0.038017273 0.03189711 -0.031001864 -0.009382862 0.028645447 -0.04490318 0.099451035
0.07200305 0.09695793 -0.12206475 0.0065839877 0.0034096055 -0.04566537 0.019333107 0.06476172
-0.03914083 -0.025799746 -0.007876986 -0.025439011 0.06675361 -0.07572213 0.06776563 0.13316692
0.15541817 0.05516484 -0.0044561503 0.01760696 0.11456393 0.0024052737 0.05505649 0.02761168
0.033161845 0.01865112 0.13116081 0.0149647575 0.076759115 -0.063803196 0.029460259 0.019579723
-0.018334856 -0.048743997 -0.0211011 0.017872026 -0.040316384 -0.0981144 -0.045274697 -0.07951275
0.08424894 -0.042978566 0.0057537816 -0.055432077 0.091335185 0.025735024 0.0005277347 -0.08557639
0.010994075 0.009111696 -0.13522188 0.10940272 -0.012438262 0.114433885 -0.011039482 0.051176716
-0.11398011 -0.02081973 -0.018296923 -0.0086427 -0.0032021166 0.040300902 0.08406168 0.027144423
-0.04572466 -0.035162378 -0.01683158 0.01640595 0.09454767 0.007877753 -0.058098312 0.08531815
0.02545926 -0.016217794 -0.0065897373 0.00836375 -0.009515125 0.02598981 -0.105267495 -0.052600477

weight f4 [128, 128]
00000000: 0d8c 3dbe b830 f03b 7bfe f6bd e531 35be
00000010: fcfd 14be e5b5 ac3d f398 09bd 9a9f 6bbd
00000020: 7a84 e8bd 2cb9 babd dc06 babc 512c 0cbe
00000030: 2105 9c3c 9785 493d bc80 06be 3e15 e03c
00000040: b36e 8abd 4829 41bc 9af6 073d 6c5d 513d
00000050: 52e4 003d 20d2 3bbd 7528 10be 661f 39bd
00000060: e824 8cbd a126 b93d 6bd5 8ebb a99c 8d3d
00000070: ba2a 57be 2243 88bc 7e1f a93b 3946 f4bb
00000080: 6cc1 2dbd 321e 49be f7c4 8dbc 6372 a2be
00000090: e94e 00bd 9ecb a5bc d593 8abe 13a9 713d
000000a0: 2b70 a9bb 01e9 1c3d b802 763c 3f1b a53d
000000b0: c73e 24bd 7bda 543d 0766 023c dddc 4bbd
000000c0: 4530 96bd c0f9 093c 3493 ed3c 1817 193d
000000d0: fe8d acbd 5033 46bd 6629 693b 8023 f8bd
000000e0: e400 283d e2d9 02be 6d41 043e 55d4 56bd
000000f0: 5a9e 1d3d d14c d1bd de31 7fbc 17cc 28bd
00000100: d821 3b3d affa 63bb 4db5 b9bd 4f67 ad3c
00000110: 2cdc 873c 4d19 13bd 3ad4 003b 7a0f fcbc
00000120: d051 bcbd bf65 9c3d 7a82 b4bc 18e1 9b3d
00000130: 8a19 88be 2eb0 373d e12b 05bc f3a7 0abd
00000140: 4608 2ebd b6f4 d5bd d473 7f3d a000 d9be
00000150: 7571 82bc a221 3ebc 0ed9 87bb 157e abbd
00000160: 3b53 c63c e839 463d a00d 1d3d 034d 49bd
00000170: bdd8 663c f5c2 5fbd e0c9 2e3d ef1b 1cbd
00000180: b800 e53c cd90 09bc d553 82bd f45c 4e3d
00000190: e6e9 a0bd d91a 8dbe 2ba1 063d 5e1f 88bc
000001a0: 54b0 46bc 1365 cd3c 7365 47bd 89ac eabc
000001b0: 2075 89bd 6573 63bd 6a4c 89bd c9f4 8a3d
000001c0: 5d85 55bd 992e 80be effc efbc d262 8abb
000001d0: cc63 abbd 2b16 2fbe b1f0 2c3d ffaa 6d3d
000001e0: 95f6 d0bd 1d31 253d 2cd8 4cbd 1fb4 123c
000001f0: 6d60 ddbb c073 ab3d 6dec 8fbd 1a2c 4dbd
00000200: d274 853d fbbd 52be 875c 83be 26be 043c
00000210: 2ce4 0cbe 0b0b fb3a d1b8 e9bc 76f8 77bd
00000220: 0a5f e2bd ed04 85bc 6e7a 5cbe 2d40 ec3c
00000230: f1f8 08be 0f93 e7bd 4f02 703d 7542 ffbc
00000240: 9c01 323d b6df 43bd be22 3cbe 2cba 90be
00000250: 8b78 1fbd 3b31 8dbd 7852 2e3d ed17 6ebd
00000260: ce9c 623d 2d53 efbc b81b efbd 584a f2bd
00000270: 8cde 16bd 6079 28be bac1 f93c d457 093d
00000280: 5b8f 823c 2412 32bd 8822 03be 4c40 fabc
00000290: b30e 563b ca12 6abc 6728 a7bd 6ba8 4cbd
000002a0: 6400 2abe 619a 403d af63 cf3d 953d 7bbd
000002b0: 6ecc 73bc fc31 6e3d e9ce a3ba 5eff 3a3d
000002c0: 7a5e 6e3c 688a 8abc 7e6a dfbd 0624 dc3c
000002d0: f8ea 92bd 8534 11bd 1520 69bd 1dde 4a3d
000002e0: 6b60 073d 77dd 843c a0f8 dabb 15fe f53c
000002f0: 7b6c 88bc 98d8 a0bd 6251 97b9 5697 ac3d
00000300: 39dc d83c 43ac 9f3d 2445 b4bd b693 a1bd
00000310: 017f 11bc bd90 c1bd 1c45 44bb 01bc 1b3d
00000320: 5357 153d ae92 41bd ab36 01bc 76cd a8bc
00000330: 086d e13c 3e05 183d 3f67 7e3d 4767 d73c
00000340: ef5b 97bc dcfc 85be bb8c ba3b f930 1abd
00000350: 0f44 b3bd 0d72 c3bd 8c42 a83d 4a93 d0bb
00000360: 448d 8fbe 845f 93bd 0022 de3d 9f02 383b
00000370: f3e3 7cbe da0b c7bd 9c86 313d a8e4 0dbc
00000380: 1084 493a 7959 d7bc 59b1 04bd 9ec8 fe3d
00000390: d449 22bd e4fb cf3d 3deb 34be 5997 c3bc
000003a0: a807 3b3c bcce 44be a1a5 75bd c358 a7bd
000003b0: a9fe 1b3b 939b 40be e23b 71bd 71c2 85bd
000003c0: 0040 7cbe ce97 47be c8a7 c13b cb23 6fbd
000003d0: c103 613c d761 7ebe 5388 173c fe30 223c
000003e0: 93f5 c13d 68cc 413c dc85 18be 7450 993d
000003f0: 17b3 a53d ffee cfbc 6c5c a1be 06dc 853c
-0.18510456 0.0073300265 -0.12060257 -0.17694815 -0.14550012 0.08433131 -0.03359313 -0.057525255
-0.11353393 -0.0911735 -0.022708349 -0.1368878 0.019045414 0.049199667 -0.13135046 0.027353879
-0.067593955 -0.011789627 0.033194162 0.051114485 0.031467743 -0.045854688 -0.14077933 -0.04519596
-0.06842977 0.09040571 -0.0043589375 0.06914646 -0.21012393 -0.016633574 0.005161225 -0.0074546603
-0.04242079 -0.19640425 -0.017305834 -0.31727895 -0.031325255 -0.020238694 -0.27065912 0.058999132
-0.005170842 0.038308147 0.015015297 0.080618374 -0.04009893 0.05196617 0.0079588955 -0.04977118
-0.073334254 0.008421361 0.029000856 0.03737554 -0.0842552 -0.04838878 0.0035577654 -0.12116146
0.041016474 -0.12778428 0.12915583 -0.05244859 0.038481094 -0.1021973 -0.015575854 -0.04121026
0.045686573 -0.003478687 -0.090677835 0.021167425 0.016584478 -0.0359128 0.0019657747 -0.030769099
-0.09195292 0.07636594 -0.022034872 0.076112926 -0.26581985 0.044845752 -0.008128137 -0.033851575
-0.04248836 -0.104470655 0.06236632 -0.4238329 -0.015923241 -0.011604698 -0.004145748 -0.083736576
0.02420961 0.048395067 0.038343072 -0.04914571 0.01408976 -0.054629285 0.04267299 -0.038112577
0.027954444 -0.00839634 -0.06363646 0.050381616 -0.078571126 -0.27559546 0.032868546 -0.01661652
-0.012127001 0.02507261 -0.048680734 -0.028646724 -0.06711793 -0.05552997 -0.06704028 0.0678497
-0.05212914 -0.2503555 -0.029295413 -0.004223206 -0.08368644 -0.170983 0.04222173 0.058024403
-0.10203282 0.04033004 -0.050010845 0.008954077 -0.0067558796 0.08371687 -0.070275165 -0.050090887
0.06516422 -0.20580284 -0.2565653 0.008101976 -0.13758916 0.0019153071 -0.02853051 -0.060539685
-0.110532835 -0.0162377 -0.21531078 0.028839195 -0.13376214 -0.11307346 0.05859595 -0.031159619
0.043458566 -0.04782077 -0.18372628 -0.28267038 -0.038933318 -0.068941556 0.042559117 -0.058128286
0.05532532 -0.029214466 -0.11675209 -0.11830586 -0.03683333 -0.16452551 0.030487884 0.033531025
0.015937498 -0.04347433 -0.12806141 -0.030548237 0.003266257 -0.014286706 -0.08162003 -0.049965303
-0.16601712 0.047022227 0.10126435 -0.061338026 -0.014880283 0.058153138 -0.0012497577 0.045653693
0.014548892 -0.0169117 -0.10908984 0.026872646 -0.07173723 -0.035450477 -0.05691536 0.04952823
0.033050936 0.016218884 -0.0066824704 0.030028382 -0.01665329 -0.07853812 -0.000288616 0.084273025
0.026472198 0.07796528 -0.0880225 -0.07889502 -0.008880378 -0.09451435 -0.002994842 0.03802109
0.036460232 -0.047259025 -0.007886569 -0.020605784 0.02751781 0.037114374 0.062110182 0.026294364
-0.018476455 -0.2616948 0.005693046 -0.03764436 -0.087532155 -0.09543238 0.08215818 -0.0063652145
-0.28037465 -0.071959525 0.10846329 0.0028077734 -0.2469633 -0.097190574 0.043341264 -0.008660473
0.00076872203 -0.026287781 -0.032395694 0.124406084 -0.03962119 0.10155466 -0.17667861 -0.02387588
0.0114154 -0.19219488 -0.05997241 -0.08171227 0.0023802912 -0.18809347 -0.058895 -0.065312274
-0.24633789 -0.19491503 0.0059098937 -0.058383744 0.013733805 -0.2484201 0.009248811 0.009899376
0.09470668 0.011828519 -0.14894813 0.07486048 0.08090799 -0.025382517 -0.31515825 0.016340267

bias f4 [128]
00000000: 34bd 013e 87c1 66bb 1318 293d 8ae9 c2bd
00000010: 823d d13d be80 ae3d f8c1 1e3e 5775 6c3e
00000020: c63e e83d a6c5 d53c abe4 a53e af3c e63d
00000030: b937 373e a627 2b3e e079 223d 8a80 043e
00000040: 210c a63c a469 a73d 3201 ed3d cee2 043e
00000050: ee18 603e 990a 92bd 9f0a 293e 56b7 933e
00000060: c91e 963e b7f0 8a3d 0306 323e 9098 743e
00000070: 5dc3 a03d eeca 383e a571 c53d e0e5 adbb
00000080: b579 ee3d 33b0 9b3d 3786 ec3d dfdb bc3d
00000090: 3327 143e e5ab c03d a20b f93d fc19 2e3e
000000a0: 8a49 d63e 4166 253e b3ca 423e e24f cc3d
000000b0: e3f9 a63d 2ad7 6f3d d655 d83d 77bc 183e
000000c0: a1df f53d 6abd f83b 1f31 3e3e f1be 443e
000000d0: 4d60 803e 8048 bc3d 59e8 dc3d 452a 053d
000000e0: aa44 5a3e 8df5 de3d 5362 b23e f991 973d
000000f0: 65fc c23d 1923 403e 0242 dfbb c5e1 213e
00000100: 57fd 2e3e 98ad 883e 0c75 d43d 087c 973e
00000110: 3f98 bb3e 644d 113e b43d ee3d ee0c 3e3e
00000120: 6f27 d13b 9de9 ad3e 9ef3 843e 4d8c bb3d
00000130: f323 d83d 1b4b 373d a012 043e aef0 043d
00000140: a743 563e 8fe2 653e 07ea 753e eceb 983e
00000150: 1843 3b3d 9d17 133e 5659 a13e 12bb 3c3d
00000160: 8dbd 223e 0a65 d438 cb1d 063e 41db 443e
00000170: 23e3 2bbe 08fe 2d3d 9cc5 8abd 4464 ba3d
00000180: 2fee 183e 3378 4d3d 0d54 a23d 81c0 373e
00000190: 8d29 3a3e 87eb 9e3d 94e4 e53d 9331 523e
000001a0: c2cb 9a3d 3fa6 113e e819 4b3e f37f ff3d
000001b0: de15 873c c543 ad3e 844b 863e c1da 2d3d
000001c0: be69 ad3d 7e9f 8b3e e53a c43e 3c27 333e
000001d0: fe27 033e 2f3e 713e 9410 273d 5888 f43d
000001e0: c0d0 5b3e 54dc 413e b044 533e 8d9f 353e
000001f0: 9dd8 0abb e32b 903d eefd 3c3e 96bc b93c
0.12669832 -0.0035210566 0.041282725 -0.095172 0.1021681 0.085206494 0.1550368 0.23091637
0.11340098 0.026095223 0.32401022 0.11242043 0.1789235 0.16714343 0.03966701 0.12939659
0.020269455 0.08174446 0.115724936 0.12977144 0.2188451 -0.071309276 0.16507958 0.28850812
0.29320362 0.06784194 0.17385106 0.23886323 0.078497626 0.18046162 0.096408166 -0.0053069443
0.116443075 0.07601967 0.11549037 0.092216246 0.14468078 0.09407786 0.12160422 0.170021
0.4185298 0.16152288 0.19022636 0.09976174 0.08153131 0.058554806 0.10563247 0.14915644
0.120055445 0.0075909393 0.18573426 0.19213463 0.25073472 0.09193516 0.10786504 0.032511014
0.21315256 0.10886679 0.3484064 0.07400889 0.09520797 0.18763389 -0.0068132887 0.1580878
0.17088829 0.26694942 0.103738874 0.29586816 0.36639592 0.14189678 0.11632863 0.1855962
0.0063828747 0.33967295 0.25967115 0.091576196 0.10553732 0.04474936 0.1289773 0.032456093
0.20924245 0.22449706 0.24015056 0.29867494 0.045718282 0.14364477 0.3151347 0.04607684
0.1589262 0.00010127768 0.13097303 0.19224264 -0.16785865 0.04247859 -0.06775972 0.091011554
0.1493461 0.05016346 0.07926188 0.17944528 0.18179913 0.07759767 0.112252384 0.20526724
0.07558395 0.14223574 0.19834101 0.12475576 0.01648992 0.33840767 0.2622949 0.042444948
0.08467434 0.2727012 0.38326183 0.17495435 0.12808225 0.23558877 0.040787295 0.11940068
0.2146635 0.18931705 0.20631671 0.17736645 -0.002118624 0.07039621 0.18456241 0.022672933
